CNN/Cifar10/Weights/cifar10.pth (torch, 585989 bytes, 10 tensors)

net.0.weight f4 [32, 3, 5, 5]
0	0xbe1aee85	-0.1513005
1	0xbdf3ae34	-0.11898461
2	0xbd27623b	-0.040865164
3	0x3d41cb6d	0.047313143
4	0x3c7095ca	0.01468415
5	0x3dceb4bd	0.10093067
6	0xbda54ac1	-0.08070899
7	0xbe575eb5	-0.21032222
8	0x3e35cc29	0.17753662
9	0x3da4b52b	0.080423675
10	0xbd033b41	-0.03203893
11	0xbe8acb0c	-0.27108037
12	0x3eb3417b	0.35010895
13	0x3ec6d2ed	0.388328
14	0xbdc7fd92	-0.097651616
15	0x3d2db0d9	0.042404983
16	0x3e62af84	0.22137266
17	0x3ed8a85b	0.42315945
18	0xbe94f89b	-0.2909592
19	0xbe3c4f31	-0.18389584
20	0x3dc211a0	0.09476018
21	0x3e544e40	0.20732975
22	0xbd5a338d	-0.05327182
23	0xbe5b5f02	-0.21422961
24	0x3e051b2a	0.12998644
25	0x3da4980f	0.080368154
26	0xb9244e62	-0.00015669459
27	0xbc9a763a	-0.018855203
28	0xbd3ad5ed	-0.04561417
29	0x3e355d56	0.17711386
30	0x3e480abe	0.19535348
31	0xbeac39f3	-0.33637962
32	0xbe9c6d65	-0.3055221
33	0x3d2da1d5	0.042390663
34	0x3e73c62b	0.23806064
35	0xbe8be35e	-0.27321905
36	0xbea589d7	-0.32331726
37	0x3e275385	0.16340454
38	0x3e6731f3	0.22577648
39	0x3e262062	0.1622329
40	0xbe5ec886	-0.21756181
41	0xbd5effd2	-0.054443188
42	0x3e55bcaf	0.20872758
43	0xbe1d8c8b	-0.15385644
44	0xbe03ae80	-0.12859535
45	0xbdb00700	-0.08595085
46	0xbb24ad93	-0.0025127872
47	0xbe73e670	-0.23818374
48	0xbe58f859	-0.21188487
49	0x3e741fcd	0.23840256
50	0x3e4f0e2f	0.20220254
51	0x3d5f4815	0.054512102
52	0x3d3d855c	0.04626976
53	0xbe006f3d	-0.12542434
54	0xbe64a12d	-0.22327109
55	0x3ea203a4	0.31643403
56	0xbe50c78b	-0.2038862
57	0xbe4a3131	-0.19745328
58	0xbde74b8c	-0.11293706
59	0x3cf5ebe0	0.0300197
60	0x3e32163b	0.17391293
61	0xbe9e7790	-0.30950594
62	0x3d24ea1a	0.04026232
63	0x3e67947a	0.22615233
64	0x3c356fd7	0.011074028
65	0x3daf5c62	0.085625425
66	0x3e506902	0.20352557
67	0x3ea2a76d	0.3176836
68	0xbe468661	-0.19387199
69	0xbe212754	-0.15737659
70	0x3b9170b5	0.0044384846
71	0x3e6286db	0.22121756
72	0xbe1e14fb	-0.15437691
73	0xbe3758f2	-0.17905024
74	0x3ded931d	0.11600325
75	0x3e12df28	0.1434294
76	0xbea424f1	-0.32059434
77	0xbd6077bf	-0.0548017
78	0x3e216afd	0.15763469
79	0xbd16bc9a	-0.03680096
80	0x3cedd53b	0.02903234
81	0x3d591105	0.052994747
82	0xbe09d00e	-0.13458273
83	0xbe9ca055	-0.30591074
84	0xbea94e6e	-0.3306765
85	0x3da475f1	0.08030308
86	0x3c73d8a5	0.014883195
87	0xbdb59d92	-0.08867945
88	0x3dfe6789	0.124220915
89	0x3e83f12c	0.25769937
90	0xbd36ac9a	-0.0445982
91	0x3cdc980e	0.026927974
92	0x3dddd915	0.10832421
93	0xbd71d212	-0.05903823
94	0xbe897ab8	-0.2685144
95	0x3d6f6ce7	0.058453467
96	0xbe01d93d	-0.12680526
97	0x3e8f0de5	0.27940288
98	0xbd37ac59	-0.044842098
99	0x3e38bade	0.18040034
100	0x3d231a9a	0.03982029
101	0xbdec485d	-0.1153724
102	0x3daae4fc	0.083444566
103	0x3e9c621d	0.30543604
104	0x3e604d5e	0.21904513
105	0x3e0a3983	0.13498501
106	0x3e0d48b1	0.13797261
107	0xbe5e2f50	-0.21697736
108	0xbddd8d27	-0.10817938
109	0xbe186bc6	-0.14884862
110	0x3dafd3ec	0.08585343
111	0x3dfca97a	0.123370126
112	0xbe65d155	-0.22443135
113	0xbb3f6332	-0.0029203412
114	0x3e93f200	0.2889557
115	0x3db7b25d	0.08969567
116	0x3dac317f	0.08407878
117	0x3de85c80	0.11345768
118	0xbe46bccf	-0.19407962
119	0xbed1dc4e	-0.40988392
120	0xbcde0f2f	-0.02710685
121	0x3b672f22	0.0035275896
122	0x3e756294	0.23963386
123	0xbe42583d	-0.18978973
124	0xbdc8e751	-0.09809745
125	0xbe4df9ff	-0.20114897
126	0xbe4b9ca1	-0.19883968
127	0x3e775eea	0.241573
128	0x3eaeeab7	0.34163448
129	0x3ed0284b	0.4065574
130	0xbd472d8c	-0.04862742
131	0x3dee4677	0.11634534
132	0x3dcbe9ed	0.09956727
133	0x3dc1b94f	0.09459173
134	0xbdd1d098	-0.10244864
135	0xbeacaed0	-0.3372712
136	0xbe24f266	-0.16108093
137	0xbea5db90	-0.32394075
138	0xbdeb4770	-0.11488235
139	0x3d4ccea9	0.050001774
140	0x3e266b50	0.16251874
141	0x3d160aed	0.036631513
142	0xbd9c54fc	-0.07633397
143	0xbe7a2f58	-0.24432123
144	0xbe8b25c6	-0.27177256
145	0x3d558703	0.05213071
146	0xbe0dd22a	-0.13849702
147	0x3e7b54c5	0.24544056
148	0x3e664b30	0.2248962
149	0x3e90dcba	0.282934
150	0xbdd1b6ba	-0.102399305
151	0xbd861852	-0.065476075
152	0x3e306401	0.17225648
153	0x3e1b1701	0.15145494
154	0x3e063b2a	0.13108507
155	0xbe7998e6	-0.24374732
156	0xbe90c31c	-0.28273857
157	0xbdb6b2c6	-0.08920817
158	0x3dde86de	0.108655676
159	0x3eafbd4e	0.34324116
160	0xbcd3c14b	-0.025849005
161	0xbda93c84	-0.082634956
162	0x3e880da4	0.26572907
163	0x3e377a47	0.17917739
164	0xbdb951d5	-0.09048811
165	0x3d32cec2	0.04365421
166	0xbe0003fd	-0.12501521
167	0xbdd2be82	-0.10290243
168	0xbe33b2b1	-0.17548634
169	0x3e1cc884	0.15310866
170	0xbde03f62	-0.10949589
171	0xbe37d1eb	-0.17951171
172	0x3d5b284a	0.05350522
173	0xbe3f0fd7	-0.18658386
174	0x3c9f70dc	0.019462995
175	0xbd15b19e	-0.036546342
176	0xbb964f78	-0.00458711
177	0xbd794186	-0.060853504
178	0xbd1665a1	-0.036718015
179	0xbe25793f	-0.16159533
180	0x3d5303b3	0.0515172
181	0xbbe524c5	-0.0069929087
182	0xbe64cf5e	-0.2234473
183	0x3e5bd340	0.21467304
184	0x3db4e395	0.0883247
185	0x3e9729b8	0.29524016
186	0x3dd18886	0.10231118
187	0x3e98b90d	0.29828683
188	0x3e40d0ee	0.188297
189	0xbeafc524	-0.34330094
190	0x3edbad99	0.42905882
191	0xbe077810	-0.13229394
192	0xbd22707b	-0.03965805
193	0xbe8e875b	-0.27837643
194	0xbe8eac23	-0.27865705
195	0x3ea426d3	0.3206087
196	0xbe346ec6	-0.17620382
197	0x3dd06a67	0.10176545
198	0xbcd8b2c0	-0.026452422
199	0xbe0867c6	-0.13320836
200	0xbd33428e	-0.043764643
201	0xbd11ecb8	-0.035626143
202	0xbda13414	-0.07871261
203	0xbd32ead1	-0.04368097
204	0x3ba520f4	0.0050393287
205	0xbbda44b4	-0.006661022
206	0xbd8d97c9	-0.06913716
207	0xbe94d29a	-0.29066926
208	0x3d8124ef	0.06305873
209	0x3d879c59	0.06621618
210	0x3e074a1f	0.13211869
211	0xbe192015	-0.14953645
212	0x3e16a1ce	0.14710161
213	0x3c97d3b1	0.01853356
214	0xbeb104a2	-0.34573847
215	0x3e5adfe7	0.21374474
216	0xbe6e9f05	-0.23302849
217	0x3e13823e	0.14405152
218	0xbca3f8d5	-0.020016113
219	0xbcdd1ad2	-0.026990328
220	0x3dea0a95	0.114277996
221	0xbe60ec92	-0.21965244
222	0x3e77d9eb	0.24204223
223	0x3dac8f09	0.08425719
224	0x3e99f843	0.3007222
225	0xbd076e19	-0.03306398
226	0x3e5d60ea	0.21619001
227	0xbe5c3bfe	-0.2150726
228	0x3e412f4e	0.18865702
229	0x3da47758	0.080305755
230	0x3da8f78b	0.0825034
231	0xbb21072b	-0.0024570923
232	0xbe0b9ac1	-0.13633253
233	0x3b3461ad	0.002752404
234	0xbe0d7256	-0.13813147
235	0xbda071ff	-0.07834243
236	0xbdf409d3	-0.11915936
237	0x3ceee2e8	0.029160932
238	0x3e7dbcd9	0.24779071
239	0x3e494946	0.19656858
240	0xbe036ebe	-0.12835214
241	0xbe274572	-0.16335085
242	0xbdfcd55c	-0.123453826
243	0xbd4edc72	-0.0505032
244	0x3dae1b68	0.08501321
245	0x3e2045fd	0.15651698
246	0x3e1a26c4	0.1505385
247	0xbe0889ba	-0.13333789
248	0xbcd1a305	-0.02559043
249	0xbdd021f8	-0.10162729
250	0x3e039a08	0.12851727
251	0x3dc73f74	0.097288996
252	0xbec64dc5	-0.38731208
253	0x3cd3a0ee	0.025833573
254	0xbe235e28	-0.15953887
255	0xbd671093	-0.05641229

net.0.bias f4 [32]
0	0xbe4e4b06	-0.20145807
1	0xbdbe977b	-0.09306236
2	0xbe0bb685	-0.13643844
3	0xbde8f91e	-0.1137564
4	0xbd89fdf8	-0.06737894
5	0xbd0ca5c6	-0.03433778
6	0xbdf0393c	-0.117296666
7	0x3e97a400	0.2961731
8	0xbda90b0e	-0.08254062
9	0xbd1c05d0	-0.03809148
10	0xbe1e1523	-0.1543775
11	0x3b35baa3	0.0027729652
12	0xbe87dec1	-0.26537135
13	0xbc867e1e	-0.01641756
14	0xbe80fa09	-0.25190762
15	0xbce36279	-0.027756916
16	0xbdce6ba3	-0.10079124
17	0xbdd869d6	-0.105670616
18	0xbe0d09ef	-0.1377332
19	0x3d5a9714	0.053366736
20	0xbd65c0c2	-0.05609203
21	0xbe1907e5	-0.14944418
22	0x3cac7921	0.021053853
23	0xbe923532	-0.2855621
24	0x3d858fe4	0.065215856
25	0x3e76f5fd	0.24117275
26	0xbe17fdb0	-0.14842868
27	0xbdcce284	-0.10004142
28	0xbd93f3f5	-0.072242655
29	0xbd7f26c3	-0.062292825
30	0xbe0b66d3	-0.13613443
31	0x3d3cf93b	0.046136122

net.2.weight f4 [32, 32, 5, 5]
0	0x3eb7bb06	0.35884875
1	0x3e941998	0.28925776
2	0x3eaa9fdb	0.33325085
3	0xbe24f573	-0.16109256
4	0xbe712f30	-0.23553157
5	0xbdf7f328	-0.12106925
6	0x3e8f99ff	0.28047177
7	0xbe864897	-0.26227257
8	0x3e0ddeac	0.13854474
9	0x3e84ae95	0.25914446
10	0x3e9cfda1	0.30662253
11	0xbe85c0a3	-0.26123533
12	0x3e887611	0.26652578
13	0x3eeff4d0	0.46866465
14	0xbecc5e49	-0.39915684
15	0xbc5f212e	-0.0136187505
16	0xbe96f123	-0.29480848
17	0x3e4e2284	0.20130354
18	0x3d066abf	0.032816645
19	0xbd40957d	-0.047017563
20	0xbe5087b1	-0.20364262
21	0xbec49bb0	-0.3840003
22	0xbe0fab8b	-0.14030282
23	0xbcac0385	-0.020997772
24	0x3c7f791c	0.01559284
25	0x3dc379f0	0.09544742
26	0xbdcefc0a	-0.101066664
27	0xbd382a8b	-0.044962447
28	0x3c784cf1	0.015155063
29	0x3e822485	0.25418487
30	0xbe0bc386	-0.13648805
31	0x3dbc38ad	0.091904975
32	0x3e57dc6f	0.21080182
33	0xbe40d66f	-0.188318
34	0xbd00808b	-0.031372588
35	0x3d66ef9e	0.05638086
36	0x3e4cb089	0.19989218
37	0xbf08c0a3	-0.5341894
38	0xbe015f7b	-0.12634079
39	0x3d372f9b	0.044723134
40	0x3e71daa9	0.23618568
41	0xbf02ae87	-0.5104756
42	0xbdb74d03	-0.08950236
43	0xbe8fe51a	-0.28104478
44	0x3e42a537	0.19008337
45	0x3d422ae8	0.0474042
46	0xbd20d615	-0.039266665
47	0x3ee9b30a	0.45644408
48	0xbda8d84f	-0.082443826
49	0xbe4f9300	-0.2027092
50	0xbe1fddaf	-0.1561191
51	0x3e448633	0.19191818
52	0x3ec1b631	0.37834314
53	0xbea3800b	-0.31933627
54	0xbe767998	-0.24069822
55	0x3e2fcd4f	0.17168163
56	0x3e90acc6	0.28256816
57	0xbd9842fd	-0.07434652
58	0xbe2da519	-0.16957511
59	0x3dcd614a	0.10028322
60	0x3f031d06	0.5121616
61	0xbe2c7928	-0.16843092
62	0xbe9e32fc	-0.30898273
63	0x3e2d6189	0.16931738
64	0xbdc81240	-0.09769106
65	0x3d18da5a	0.03731761
66	0xbefcd619	-0.49382094
67	0x3d587cbf	0.052853342
68	0x3dd164cf	0.10224306
69	0x3c65e385	0.014031296
70	0xbe21ebdc	-0.1581263
71	0x3e7812f1	0.24225976
72	0x3d778a99	0.06043491
73	0xbe3cf45d	-0.18452592
74	0x3e848810	0.25885057
75	0x3cf0e22e	0.029404726
76	0x3e292bb9	0.16520585
77	0xbe24ce61	-0.16094352
78	0xbe38ff2b	-0.18066089
79	0x3ab5a0b1	0.0013857094
80	0x3e9ec823	0.31012067
81	0xbebf7fb9	-0.37402132
82	0xbeb1eb3a	-0.34749776
83	0x3e4b4b00	0.19852829
84	0x3b73cd61	0.0037201273
85	0x3e8c4c6a	0.2740205
86	0xbeb8d723	-0.36101636
87	0x3d2be465	0.04196586
88	0x3eb571c4	0.3543836
89	0xbdf4f4d5	-0.119607605
90	0x3d893250	0.066990495
91	0xbec477d8	-0.38372684
92	0x3edfa8ae	0.4368338
93	0xbe588e3d	-0.2114801
94	0x3e1a80f0	0.15088248
95	0xbdc11480	-0.09427738
96	0x3e5a9ac9	0.21348108
97	0x3ea03ae0	0.31294918
98	0xbe51cee9	-0.20489086
99	0xbe0c3bfd	-0.13694759
100	0x3e3de22a	0.18543306
101	0x3e0d4683	0.1379643
102	0xbe0fc100	-0.14038467
103	0xbe3816af	-0.17977403
104	0xbda4bdf5	-0.08044044
105	0x3ead8ee5	0.33898082
106	0x3e85b122	0.26111704
107	0xbefbf74a	-0.49212104
108	0xbdc3974d	-0.09550343
109	0xbded57e2	-0.11589028
110	0x3e777e21	0.24169208
111	0xbe9df1a9	-0.30848435
112	0xbe9a6c97	-0.30160972
113	0x3da36b64	0.079794675
114	0x3e9177e9	0.28411797
115	0xbe7c7dd7	-0.24657379
116	0xbe849d21	-0.2590113
117	0x3dc32a85	0.09529594
118	0xbe813657	-0.2523677
119	0x3bf0ac9e	0.0073447963
120	0x3db30a93	0.08742251
121	0x3e04d3e2	0.12971452
122	0x3e130a39	0.14359368
123	0x3e9fd3e6	0.31216353
124	0xbe663c66	-0.22483978
125	0xbebbb0bb	-0.36658272
126	0x3e307f99	0.17236175
127	0x3edd729f	0.4325151
128	0xbead7804	-0.33880627
129	0x3c82ec51	0.015981825
130	0x3c0a0e4e	0.008426262
131	0x3e938191	0.2880979
132	0xbf2014bb	-0.6253163
133	0x3f078d6e	0.5295018
134	0x3e88e835	0.2673966
135	0x3df3e5a6	0.11909036
136	0xbe3aeaa0	-0.18253565
137	0xbe23b997	-0.15988766
138	0x3ecae794	0.39629805
139	0xbe917748	-0.28411317
140	0xbe1651ec	-0.14679688
141	0x3cf7ba4c	0.0302402
142	0x3ec84abe	0.39119524
143	0xbda363a6	-0.07977991
144	0xbd3933ee	-0.04521554
145	0xbee108ab	-0.43951926
146	0x3e140814	0.14456207
147	0x3e931722	0.28728586
148	0x3d2eefa9	0.042709026
149	0xbeb57f66	-0.3544876
150	0x3e8aeed5	0.2713534
151	0xbd9caa9b	-0.07649728
152	0xbe26b9c5	-0.16281803
153	0x3cc7eb3f	0.024404166
154	0x3d42b001	0.04753113
155	0x3c3bd20c	0.011463653
156	0x3d570edc	0.052504405
157	0x3e6860c5	0.22693165
158	0x3cef043f	0.02917683
159	0xbecfff19	-0.40624312
160	0xbe4166ca	-0.18886867
161	0xbd36d5cc	-0.044637486
162	0x3cbb5352	0.022866879
163	0xbe3a41db	-0.18189184
164	0xbd58b372	-0.052905507
165	0xbd8fe56e	-0.07026182
166	0xbd30bd9e	-0.043149583
167	0xbe956731	-0.2918029
168	0x3e06f9cc	0.13181227
169	0x3ef1b24a	0.47206336
170	0x3e1243b0	0.14283633
171	0xbe0f6175	-0.1400202
172	0xbd9c06ea	-0.07618506
173	0x3d402a83	0.046915542
174	0x3e1111a0	0.1416688
175	0x3e13506d	0.14386149
176	0x3dfcc7d0	0.12342799
177	0x3e2d0b5f	0.16898869
178	0xbf15828b	-0.5840232
179	0xbee75d21	-0.4518824
180	0xbd17fd21	-0.037106637
181	0x3dab390c	0.0836049
182	0xbdee21f6	-0.11627571
183	0xbd9269d3	-0.071490906
184	0x3d8f1044	0.06985524
185	0x3d290fb6	0.04127475
186	0x3e0dd1c8	0.13849556
187	0xbdc4d4d8	-0.09610909
188	0x3f36e00f	0.71435636
189	0x3e2dfade	0.1699023
190	0xbe5fff49	-0.21874727
191	0xbd29356b	-0.04131071
192	0x3e1fe385	0.15614136
193	0x3e9a10fa	0.30091077
194	0xbe93980e	-0.28826946
195	0xbe0cbc1d	-0.13743635
196	0xbeff999e	-0.49921888
197	0x3df5c5fe	0.12000655
198	0x3dc3278c	0.09529027
199	0xbdd0d3c4	-0.10196641
200	0xbd9a39b7	-0.075305395
201	0x3dda30a1	0.106538065
202	0x3dd17d14	0.10228935
203	0xbe20eed4	-0.15716106
204	0x3ec79579	0.38981226
205	0xbcdee907	-0.027210725
206	0xbd592503	-0.053013813
207	0xbe7fb23f	-0.24970339
208	0x3d1628be	0.03665995
209	0x3d527b74	0.051387265
210	0x3cac837a	0.021058787
211	0xbce0b771	-0.027431222
212	0x3d97a89f	0.07405209
213	0x3dbb2659	0.091381736
214	0xbe4b90f6	-0.19879517
215	0x3d6780f8	0.05651948
216	0x3e3257eb	0.1741635
217	0xbead20f4	-0.33814204
218	0xbc54fb61	-0.0129993865
219	0xbec30f9e	-0.38097852
220	0xbd04b107	-0.03239539
221	0xbb0f9e85	-0.0021914553
222	0xbde2077b	-0.11036583
223	0x3ded7a20	0.11595559
224	0x3e494fbf	0.19659327
225	0xbe0e8540	-0.13918018
226	0xbdb7346f	-0.08945548
227	0xbec6539d	-0.38735667
228	0xbe4b35fc	-0.19844812
229	0x3d8d6b14	0.06905189
230	0xbe730442	-0.23732093
231	0x3e1df8f9	0.15427007
232	0x3db1b981	0.0867796
233	0x3dae4651	0.085095055
234	0x3d1615db	0.036641937
235	0x3e4d6a26	0.20060024
236	0xbde95c83	-0.11394598
237	0x3c84532e	0.016152944
238	0xbdd8c822	-0.10585047
239	0xbdb7951c	-0.08963987
240	0xbdc3f0c9	-0.095674105
241	0xbed2b36e	-0.4115252
242	0xbe474037	-0.1945809
243	0x3cd495e3	0.025950378
244	0x3ccaa8fb	0.02473878
245	0x3a1a2442	0.00058800366
246	0x3df4c6df	0.11951994
247	0x3c015979	0.007894867
248	0xbd0a953a	-0.03383372
249	0x3d194fb2	0.03742952
250	0xbdbd27ea	-0.09236129
251	0x3e906e0d	0.28208962
252	0xbdbb6790	-0.09150612
253	0x3d1feb2b	0.039042633
254	0xbd68b382	-0.056811817
255	0xbcc7060e	-0.02429488

net.2.bias f4 [32]
0	0xbef51384	-0.47866452
1	0xbf063f23	-0.5244009
2	0xbf473ebe	-0.7783011
3	0xbe81cc22	-0.25351053
4	0xbf4f0875	-0.8087228
5	0xbf102803	-0.56311053
6	0xbf07c00a	-0.53027403
7	0xbef0e6d2	-0.47051102
8	0xbf305ca5	-0.68891364
9	0xbf1bac7c	-0.60810065
10	0xbe8d279f	-0.2756929
11	0xbf138112	-0.5761882
12	0xbee96c77	-0.45590565
13	0xbf62f6df	-0.88657945
14	0xbf258ce3	-0.646681
15	0xbef41aeb	-0.47676787
16	0xbf0aa6f2	-0.5416099
17	0xbf4b2a4b	-0.7936141
18	0xbf1afd61	-0.60542876
19	0xbf08eb89	-0.534844
20	0xbe5390af	-0.20660661
21	0xbf273186	-0.6530994
22	0xbee30549	-0.4433997
23	0xbefa06e6	-0.48833388
24	0xbf14342f	-0.57892126
25	0xbf4b7a13	-0.79483145
26	0xbf33853e	-0.70125186
27	0xbf4ed768	-0.80797434
28	0xbf04e4d2	-0.5191165
29	0xbe8bf325	-0.27333942
30	0xbf56fb43	-0.83977145
31	0xbde6d642	-0.11271335

net.4.weight f4 [64, 32, 5, 5]
0	0xbea03880	-0.31293106
1	0xbe426481	-0.18983652
2	0xbec34a47	-0.38142607
3	0x3cc047e2	0.023471776
4	0xbe8b8f0f	-0.27257583
5	0xbe6fa262	-0.23401788
6	0x3f0a8230	0.541049
7	0xbe809cd1	-0.2511964
8	0x3e02fd84	0.12792021
9	0xbdb2b24c	-0.08725414
10	0x3b0b3129	0.0021239019
11	0x3e0267bc	0.12734884
12	0xbead4f23	-0.3384944
13	0xbe039b67	-0.1285225
14	0x3ea11282	0.31459433
15	0x3eca23ee	0.39480537
16	0xbe881dcd	-0.26585236
17	0xbdb7a63c	-0.089672536
18	0x3ee21b0c	0.4416126
19	0xbe4e9443	-0.20173745
20	0x3e968080	0.29394913
21	0xbcd18a5e	-0.025578674
22	0xbd15c9ce	-0.03656941
23	0xbed44f54	-0.41466773
24	0x3d309d8d	0.043119002
25	0xbea5869e	-0.32329267
26	0x3d4368dc	0.047707424
27	0xbd0c8814	-0.03430946
28	0x3e65d40b	0.22444169
29	0x3f142079	0.5786205
30	0x3d25fba9	0.040523205
31	0xbdac02c3	-0.08398964
32	0xbdc7b403	-0.097511314
33	0x3e070b0a	0.13187805
34	0xbe608a8b	-0.2192785
35	0x3e411b44	0.18858057
36	0x3d7f026d	0.062258173
37	0x3e9790ea	0.29602748
38	0x3efae0ad	0.4899954
39	0xbe3ca554	-0.18422443
40	0x3b44d789	0.0030035696
41	0xbeb9c085	-0.36279693
42	0x3edac017	0.42724678
43	0x3e93b879	0.2885168
44	0xbf2ed4a7	-0.6829323
45	0xbd5363e2	-0.051608928
46	0xbebb29c5	-0.36555305
47	0xbe14570d	-0.14486332
48	0xbe798949	-0.24368776
49	0x3e0d3ce0	0.13792753
50	0x3c8d8303	0.017274385
51	0x3dcc0f04	0.099638015
52	0xbdc730e5	-0.09726123
53	0xbdddf4f2	-0.10837735
54	0x3e933c8f	0.2875714
55	0x3e6bb923	0.23019843
56	0x3d5be2d9	0.053683136
57	0x3e222416	0.15834078
58	0xbe113935	-0.14181979
59	0xbd6d036a	-0.057864584
60	0x3f1e2039	0.6176792
61	0xbe9ed4fe	-0.31021875
62	0xbd74587f	-0.05965471
63	0x3d41f362	0.04735125
64	0x3d42e69a	0.0475832
65	0xbe5ef9e3	-0.21775012
66	0x3e354f75	0.17706092
67	0xbd81e488	-0.06342417
68	0xbdbaf59e	-0.09128879
69	0xbe13b0ba	-0.14422885
70	0x3e170487	0.14747821
71	0x3e499759	0.19686641
72	0xbeea9a47	-0.4582083
73	0x3dfbb143	0.12289669
74	0x3e3155b1	0.17317845
75	0x3eeef3c6	0.4667036
76	0xbe869d2f	-0.26291797
77	0xbded9de7	-0.11602383
78	0x3e4325ed	0.19057436
79	0x3cde4145	0.027130732
80	0xbece9afb	-0.40352616
81	0xbdfad835	-0.122482695
82	0xbe80e863	-0.25177297
83	0x3e1674af	0.14692949
84	0xbcf9de6a	-0.030501563
85	0xbda598b7	-0.08085769
86	0xbedc051b	-0.42972645
87	0xbe48a71d	-0.19594999
88	0xbec81bb5	-0.3908364
89	0x3e537f34	0.20653993
90	0x3eb84ee8	0.359977
91	0xbe874fa2	-0.26427943
92	0x3f021eae	0.50828063
93	0xbec191fa	-0.37806684
94	0xbd56e732	-0.05246658
95	0x3ebf1ab4	0.3732506
96	0xbe8fdd68	-0.28098607
97	0xbe90c2c6	-0.282736
98	0xbc2a5eca	-0.010398576
99	0xbdce1cc4	-0.1006408
100	0xbe12626c	-0.14295357
101	0xbd43b550	-0.047780335
102	0xbee70e31	-0.45128015
103	0xbe9d3f97	-0.30712578
104	0xbe000b16	-0.12504229
105	0x3e32550b	0.17415254
106	0xbdf16e17	-0.11788576
107	0xbe8a29b1	-0.26984933
108	0x3e988eef	0.2979655
109	0xbe2b60bd	-0.16736121
110	0xbe895f1d	-0.26830378
111	0xbe958a9b	-0.2920731
112	0xbbc176aa	-0.0059040384
113	0x3c449943	0.011999431
114	0x3d3e8a0e	0.046518378
115	0x3e12b94f	0.14328502
116	0x3e7582a3	0.23975615
117	0xbdad4467	-0.08460312
118	0xbf05da48	-0.52286196
119	0xbebc0526	-0.36722678
120	0xbe778ead	-0.2417552
121	0xbeec00f2	-0.4609447
122	0xbd904fe5	-0.07046489
123	0x3db22e5a	0.08700247
124	0xbf13dba1	-0.57757
125	0x3eec01e1	0.46095183
126	0x3df14b9e	0.11782001
127	0x3de5f8a0	0.11229062
128	0xbe179001	-0.14801027
129	0x3d864c98	0.06557578
130	0xbe8efaed	-0.27925816
131	0xbd34dc49	-0.044155393
132	0xbd7f762b	-0.062368553
133	0xbeca17db	-0.39471325
134	0xbe48ea12	-0.1962054
135	0x3eef82ab	0.4677938
136	0x3e9e60b5	0.30933157
137	0x3d6ee49c	0.058323488
138	0x3dc1e0d7	0.09466713
139	0xbe52e180	-0.20593834
140	0x3c42b4c9	0.011883923
141	0xbf357d0a	-0.7089392
142	0x3e437b52	0.19090012
143	0x3e95b9f7	0.29243442
144	0x3d82e3be	0.063910946
145	0x3d44ce1e	0.04804813
146	0xbe7eb6c3	-0.24874406
147	0x3d6ed5b2	0.058309264
148	0xbd1e073b	-0.038581114
149	0x3ea2f541	0.3182774
150	0xbe0c92c7	-0.13727866
151	0xbf07bcc7	-0.53022426
152	0xbde8ff1c	-0.11376783
153	0xbe6f92dc	-0.23395866
154	0xbede6f86	-0.4344446
155	0xbe2cbcc8	-0.1686889
156	0x3eda710a	0.42664367
157	0x3e6e1fac	0.2325427
158	0xbd65d43c	-0.056110606
159	0x3e96e440	0.29471016
160	0xbe140aae	-0.14457199
161	0x3d34f316	0.044177137
162	0xbbed677b	-0.007245002
163	0x3d9d9637	0.07694667
164	0x3e8ab1b0	0.2708869
165	0xbe9eb6f3	-0.30998954
166	0xbd6aaa32	-0.057291217
167	0xbdf076d6	-0.11741416
168	0x3e2b3b6f	0.16721891
169	0xbea682a3	-0.32521543
170	0x3e31188e	0.17294523
171	0xbe84b21a	-0.2591713
172	0xbd702008	-0.058624297
173	0x3e089e39	0.13341607
174	0x3edc9be6	0.4308769
175	0xbc0a85ac	-0.008454721
176	0xbdf7c6fd	-0.12098501
177	0x3e169270	0.14704299
178	0xbdd7df7d	-0.10540674
179	0x3e41ff5e	0.18945071
180	0x3e6a9c16	0.22911105
181	0x3d086d09	0.03330711
182	0xbe1d4d06	-0.15361413
183	0x3d442699	0.047888372
184	0xbddbd2bc	-0.10733554
185	0xbe13cfb6	-0.14434704
186	0x3e10af77	0.14129435
187	0xbe01305b	-0.12616102
188	0xbec8ddce	-0.39231724
189	0xbe9147c7	-0.28375074
190	0xbddf4f7b	-0.109038316
191	0xbe1e1a11	-0.15439631
192	0xbea3ffe0	-0.32031155
193	0xbed24c43	-0.41073808
194	0xbea2a0bb	-0.31763253
195	0x3d776e39	0.06040785
196	0xbed761cc	-0.420668
197	0xbec54a3c	-0.385332
198	0xbe0d506e	-0.13800213
199	0x3eb6db97	0.3571441
200	0x3e00f0aa	0.12591806
201	0x3e956c58	0.29184222
202	0xbed8901d	-0.4229745
203	0x3ea66c5c	0.32504547
204	0xbd223c83	-0.03960849
205	0x3e75b3db	0.2399439
206	0xbea254fd	-0.31705466
207	0x3d8c0256	0.06836383
208	0xbd1315d3	-0.035909485
209	0xbe75c6e1	-0.24001648
210	0x3f05ead6	0.52311456
211	0xbf006308	-0.5015111
212	0x3e74d4d4	0.23909312
213	0xbe0b3066	-0.13592681
214	0x3e1a0ce6	0.15043983
215	0x3e4571e6	0.1928173
216	0xbeded7b4	-0.43523943
217	0x3dc44465	0.09583358
218	0x3f014fa1	0.5051213
219	0x3e89bd60	0.26902294
220	0xbe8c5632	-0.27409512
221	0xbf0d01fe	-0.55081165
222	0x3de48b7d	0.11159418
223	0x3d88f48d	0.06687269
224	0xbdef198d	-0.11674795
225	0xbe6fb818	-0.2341007
226	0x3eb510a3	0.35364255
227	0xbea1e2fb	-0.31618485
228	0x3b37c1f6	0.0028039194
229	0x3ed8ae89	0.4232066
230	0x3de4e8d7	0.11177223
231	0xbe377250	-0.179147
232	0xbe92fb47	-0.28707334
233	0xbe316c4f	-0.17326473
234	0xbe8d1608	-0.2755587
235	0xbdb62857	-0.08894413
236	0x3e8b51b1	0.27210763
237	0x3effd09a	0.49963838
238	0x3dc8211c	0.0977194
239	0x3bb58a80	0.005540192
240	0xbe10290e	-0.14078161
241	0x3d10a88d	0.035316993
242	0xbdadfcd0	-0.08495486
243	0xbe754a58	-0.23954141
244	0x3e6fcf27	0.23418866
245	0x3e9c379a	0.3051117
246	0x3e910b77	0.2832906
247	0x3d188918	0.037240118
248	0xbe470318	-0.19434774
249	0xbccf9860	-0.025341213
250	0xbeef0cdb	-0.46689495
251	0xbdb31d26	-0.08745794
252	0xbd8e3489	-0.06943614
253	0xbdeac10a	-0.114626005
254	0xbe76de94	-0.24108344
255	0xbd1ff4b2	-0.03905172

net.4.bias f4 [64]
0	0x3e86b851	0.26312497
1	0xbeadf927	-0.3397915
2	0xbec0ddbe	-0.37669176
3	0xbf9003ee	-1.1251199
4	0xbe838eef	-0.25694987
5	0xbf059117	-0.52174515
6	0xbf1ca53b	-0.6118962
7	0xbf201b6e	-0.62541854
8	0xbf0c786f	-0.5487127
9	0xbe947807	-0.28997824
10	0xbf22f597	-0.6365599
11	0xbeec544d	-0.46158066
12	0x3e666c89	0.2250234
13	0xbf6ae7d3	-0.91759986
14	0xbef65ba1	-0.48116782
15	0xbf172e26	-0.5905479
16	0xbec7efcc	-0.39050138
17	0xbea8a97a	-0.329418
18	0xbe69c2e9	-0.22828259
19	0xbefaede2	-0.49009615
20	0xbf15384f	-0.58289045
21	0xbe802e9a	-0.25035554
22	0xbf10cf07	-0.565659
23	0xbf8bd0c0	-1.092308
24	0xbf27b095	-0.6550382
25	0xbeff9351	-0.4991708
26	0xbed2bafe	-0.4115829
27	0xbefef4f8	-0.4979627
28	0xbf6c72b7	-0.9236254
29	0xbf4acdb1	-0.7922011
30	0xbf3800bd	-0.71876127
31	0xbf17a245	-0.5923198
32	0xbf61ec08	-0.8825078
33	0x3d393cc9	0.045223985
34	0x3c4c9b38	0.012488179
35	0xbf2d679a	-0.6773621
36	0xbf32723b	-0.6970555
37	0xbde202ff	-0.11035728
38	0xbf4b2237	-0.7934908
39	0xbdf50e0f	-0.11965572
40	0xbede3a41	-0.4340382
41	0xbf253d16	-0.64546335
42	0x3e7616ad	0.24032088
43	0xbf5ba5b9	-0.8579975
44	0xbeb5161e	-0.35368437
45	0xbf3c7428	-0.7361474
46	0xbf492201	-0.7856751
47	0xbf6ce24a	-0.9253279
48	0xbe893c42	-0.26803786
49	0xbea44197	-0.3208129
50	0xbf378f5a	-0.7170311
51	0xbdd4e585	-0.1039534
52	0xbe17efc2	-0.14837554
53	0xbeac215c	-0.336192
54	0x3e69c3ac	0.22828549
55	0xbe53ec4f	-0.20695613
56	0xbf2d7526	-0.6775688
57	0xbe829fa2	-0.25512415
58	0xbeb71577	-0.35758564
59	0xbf799bc4	-0.97503304
60	0xbf7e2afa	-0.9928433
61	0xbee4cbc6	-0.44686717
62	0xbe4a041e	-0.19728133
63	0xbf2e42a6	-0.6807045

net.7.weight f4 [64, 1024]
0	0xbe0f0e5f	-0.13970326
1	0xbdc7722b	-0.09738573
2	0xbdb18aba	-0.08669038
3	0xbe4a157c	-0.19734758
4	0x3eabf7a0	0.3358736
5	0xbd59c6e1	-0.05316818
6	0xbc5e8e54	-0.013583738
7	0x3d09e0c6	0.033661626
8	0x3e48edcc	0.19621962
9	0x3d56df30	0.052458942
10	0x3d7eb84d	0.06218748
11	0x3ece1547	0.40250608
12	0x3de22a9b	0.110432826
13	0x3c86f6d9	0.016475128
14	0x3d1d2543	0.038365614
15	0x3c18163a	0.009282643
16	0xbdcb917a	-0.09939857
17	0xbe1a90e9	-0.15094341
18	0xbc802959	-0.015644716
19	0x3dbee695	0.09321324
20	0xbeb2e7df	-0.3494253
21	0x3b86facb	0.0041192523
22	0x3dbfe82d	0.09370456
23	0xbd0649a3	-0.03278507
24	0xbdade1cd	-0.08490334
25	0xbd2a70eb	-0.041611593
26	0xbe82ca15	-0.255448
27	0xbe9bdd6c	-0.3044237
28	0x3e5dfe25	0.2167898
29	0x3ddeb75d	0.108748175
30	0xbe99e6e5	-0.3005897
31	0xbf18a7b9	-0.59630924
32	0xbe8d402c	-0.27588022
33	0x3daeea26	0.08540754
34	0xbc573780	-0.013135791
35	0xbcfc8853	-0.030826723
36	0xbece465f	-0.40288064
37	0xbd3cfd92	-0.04614026
38	0x3e1a3f33	0.15063171
39	0x3dbacdf2	0.09121312
40	0x3c9b1916	0.01893286
41	0xbc103997	-0.008802793
42	0x3dd8aefb	0.1058025
43	0x3e29af14	0.16570693
44	0x3d7d1223	0.061784875
45	0xbe9d2cea	-0.3069833
46	0x3d2122ae	0.039339714
47	0x3cab4137	0.02090512
48	0xbc748faa	-0.01492683
49	0xbecd152e	-0.4005522
50	0x3c612221	0.013741047
51	0x3d6c65ff	0.05771446
52	0xbe4341b5	-0.19068034
53	0x3df36e5a	0.11886282
54	0x3d9b889e	0.07594417
55	0x3d772f30	0.060347736
56	0x3e5255b3	0.20540504
57	0x3d7ac3cf	0.061221894
58	0xbdb41982	-0.08793928
59	0xbd4e8dec	-0.050428316
60	0xbeb6daeb	-0.35713896
61	0xbd8e38fa	-0.06944461
62	0xbe8e1b5f	-0.27755257
63	0x3e1ac0f4	0.15112668
64	0xbd81a3d4	-0.06330076
65	0xbf232aac	-0.6373699
66	0x3e6c38c7	0.23068534
67	0xbe7b61ed	-0.24549074
68	0xbc261caa	-0.01013867
69	0xbdd7defd	-0.105405785
70	0x3db14624	0.086559564
71	0xbd89316d	-0.0669888
72	0x3ec0fa44	0.37690938
73	0x3eec7a6e	0.46187156
74	0xbeacad35	-0.33725896
75	0x3c58ce7b	0.0132328225
76	0x3e81f2f2	0.25380665
77	0x3d6bc926	0.057564877
78	0x3eb56740	0.35430336
79	0x3de4f1fa	0.11178966
80	0xbc89c55e	-0.016817745
81	0x3ed75945	0.42060295
82	0x3ea149cb	0.31501612
83	0x3e931a87	0.28731176
84	0xbe8f8d8e	-0.28037685
85	0x3e9827bb	0.29717812
86	0xbc74df7a	-0.014945859
87	0xbe7ed7d5	-0.24887021
88	0xbe2f03d1	-0.170913
89	0xbeaa8ecb	-0.33312067
90	0x3dba739f	0.09104084
91	0xbe2d851f	-0.16945313
92	0xbdd832d5	-0.105565704
93	0xbdd9899a	-0.106219485
94	0x3ef9b195	0.48768297
95	0x3e79bc68	0.24388278
96	0xbd77f631	-0.06053752
97	0xbea814fb	-0.32828507
98	0x3dd8a368	0.10578042
99	0x3e15f93e	0.1464586
100	0x3ea45abe	0.3210048
101	0x3dbde866	0.09272842
102	0x3f041222	0.5159017
103	0xbce167cc	-0.027515315
104	0x3cd42262	0.025895301
105	0xbdd9aced	-0.10628686
106	0x3cf5180a	0.02991869
107	0x3d90eeb2	0.070767775
108	0x3e72832c	0.2368285
109	0x3e9251ca	0.28578025
110	0xbef424f2	-0.47684437
111	0x3d1a57cb	0.037681382
112	0x3d05f213	0.032701563
113	0xbda86129	-0.08221657
114	0xbeb30495	-0.34964433
115	0xbd08f158	-0.03343329
116	0x3e9f898f	0.31159636
117	0x3e294a61	0.1653228
118	0xbe6c66e6	-0.23086128
119	0xbd242863	-0.04007758
120	0x3d548813	0.051887583
121	0x3e6f8da6	0.23393878
122	0x3e123258	0.14277017
123	0xbdbdcf99	-0.09268112
124	0xbc63d831	-0.0139065245
125	0x3e85004a	0.25976783
126	0x3e7e279e	0.248198
127	0x3f034094	0.51270413
128	0x3e23bbe0	0.15989637
129	0x3ea4c488	0.3218119
130	0x3db447e2	0.08802773
131	0xbec85113	-0.39124355
132	0xbed6ffbf	-0.41991994
133	0x3ec02dc0	0.37534904
134	0x3e0bc616	0.13649783
135	0xbe1911b8	-0.14948165
136	0xbef69d61	-0.48166946
137	0x3c274fd0	0.0102119
138	0x3d77620c	0.06039624
139	0xbe3d6d4d	-0.18498726
140	0xbdf48d86	-0.11941056
141	0x3e647cf1	0.22313286
142	0xbd464456	-0.048405014
143	0xbee8e33a	-0.4548586
144	0xbd63bbce	-0.055599026
145	0xbdd2eab2	-0.10298671
146	0x3e865468	0.26236272
147	0x3eab7b33	0.3349243
148	0x3d2bcaed	0.041941572
149	0x3df9e1d9	0.1220128
150	0x3d7dbee0	0.06194961
151	0xbea8745b	-0.32901272
152	0x3e6f1684	0.23348433
153	0x3da6f04e	0.08151303
154	0xbe2f0493	-0.17091589
155	0xbe311fa4	-0.17297226
156	0xbe050387	-0.12989627
157	0xbd34b9f9	-0.04412267
158	0xbe6d0e46	-0.23149976
159	0xbdbbb16f	-0.09164702
160	0x3d91f059	0.07125921
161	0x3e435a22	0.19077352
162	0x3d9f5f05	0.077817954
163	0xbd25b593	-0.040456366
164	0xba222631	-0.00061855005
165	0xbdcb41eb	-0.09924682
166	0x3b33f4d9	0.0027459173
167	0xbcc207b5	-0.023685316
168	0x3cac7b58	0.021054909
169	0xbdaefaeb	-0.085439526
170	0x3e5b38fc	0.21408457
171	0x3e85d85b	0.2614163
172	0x3e31116e	0.17291805
173	0x3d3cdca0	0.046108842
174	0xbc6d0dc8	-0.014468618
175	0x3d8ea320	0.069647074
176	0x3da19b2e	0.07890926
177	0x3ece7f1d	0.40331355
178	0xbdce0a30	-0.10060537
179	0x3d94a33a	0.072576955
180	0xbe027929	-0.12741531
181	0xbe263520	-0.16231203
182	0xbe22531f	-0.1585202
183	0x3ddf8639	0.10914273
184	0xbe4a2b50	-0.19743085
185	0x3cee90e3	0.029121822
186	0xbc97c01e	-0.018524226
187	0xbe5b14c5	-0.21394642
188	0xbeb965bf	-0.3621044
189	0x3d0a7d16	0.033810697
190	0xbca2ea66	-0.01988716
191	0x3d57043b	0.05249427
192	0x3eb20ffc	0.3477782
193	0xbe029733	-0.1275299
194	0x3d104df8	0.035230607
195	0x3e1795c1	0.1480322
196	0x3ead0e96	0.3380019
197	0xbd03d9c1	-0.03219009
198	0xbe15d135	-0.14630587
199	0x3e371363	0.17878489
200	0x3e6df399	0.23237456
201	0xbe8b9411	-0.27261403
202	0x3e7f4619	0.24929084
203	0x3da51a5a	0.08061667
204	0x3ebb6c92	0.3660627
205	0x3e3817ae	0.17977783
206	0xbd9a5ee7	-0.075376324
207	0xbe3608a0	-0.17776728
208	0x3ed58bba	0.41708165
209	0x3d7c6107	0.06161597
210	0xbe8b9dbc	-0.2726878
211	0xbe064003	-0.13110356
212	0x3d509de7	0.050931837
213	0xbe1350b4	-0.14386255
214	0xbd37038e	-0.044681124
215	0x3cf3359a	0.029688645
216	0xbe795ff7	-0.24353014
217	0xbec70589	-0.3887141
218	0x3dc8dd82	0.09807874
219	0xbda4a9e3	-0.08040216
220	0x3e3d6d31	0.18498684
221	0x3e566961	0.20938636
222	0x3e96e45c	0.294711
223	0xbda6b934	-0.081407934
224	0x3e01cccb	0.12675779
225	0xbcf18735	-0.029483417
226	0xbe4e3b1d	-0.20139737
227	0xbcf14d3a	-0.02945577
228	0x3e468de1	0.1939006
229	0x3dcca637	0.099926405
230	0x3d9b4ccc	0.07583007
231	0x3da77f45	0.081785716
232	0x3d9e6cc6	0.07735591
233	0xbdf4c8c7	-0.11952358
234	0xbed4aec7	-0.41539595
235	0x3e8631e7	0.26209947
236	0xbe81a4d2	-0.2532106
237	0x3e0087c1	0.12551786
238	0xbe5511a9	-0.20807518
239	0xbe4ed74e	-0.2019932
240	0xbb5b86bb	-0.0033497054
241	0x3e830671	0.25590852
242	0x3b673708	0.0035280604
243	0xbd1c7eee	-0.038206987
244	0xbe570861	-0.2099929
245	0xbe836571	-0.2566333
246	0xbc07bc13	-0.0082845865
247	0x3cbf7132	0.023369405
248	0xbe3ba102	-0.18323138
249	0xbe43ffc8	-0.19140542
250	0xbc4fa90c	-0.012674581
251	0x3d88aa60	0.066731215
252	0xbe23dd43	-0.16002373
253	0x3d2d706b	0.04234354
254	0xbe80dade	-0.25166982
255	0xbd507df5	-0.050901372

net.7.bias f4 [64]
0	0x3e636ee8	0.22210276
1	0x3d9b9e8e	0.07598601
2	0x3e525707	0.20541011
3	0xbe8fefaa	-0.28112537
4	0xbc8597ea	-0.01630779
5	0xbc972d71	-0.018454285
6	0x3e700d1b	0.234425
7	0x3da8f025	0.08248929
8	0x3e02baeb	0.12766616
9	0xbc2edf6e	-0.010673387
10	0x3d90a570	0.07062805
11	0xbef1789e	-0.47162336
12	0x3eab3c06	0.33444232
13	0xbdca5f7e	-0.09881495
14	0xbd64c5ae	-0.055852585
15	0x3e2e5995	0.1702636
16	0x3cf9cfc8	0.030494586
17	0xbc077d9c	-0.008269694
18	0xbe19d6f6	-0.15023407
19	0xbe61ac0b	-0.22038285
20	0x3e54b1af	0.20770906
21	0xbbadc8bf	-0.005303472
22	0x3ebe69be	0.3719005
23	0xbc981ef5	-0.018569449
24	0x3ddf56f1	0.10905255
25	0xbd86d6bc	-0.06583926
26	0x3e4b1f46	0.19836149
27	0x3e8e8f7a	0.2784384
28	0xbd66daae	-0.056360893
29	0xbb9325c3	-0.0044905855
30	0xbd37f5c8	-0.04491213
31	0x3f4ea73b	0.80723923
32	0xbddd522e	-0.1080669
33	0xbe1bdff0	-0.15222144
34	0x3e911372	0.28335148
35	0x3e4dc2a0	0.20093775
36	0x3d855f09	0.06512267
37	0xbe8eb6ca	-0.27873832
38	0x3e933588	0.2875178
39	0xbe5742b1	-0.21021535
40	0xbeb80213	-0.35939083
41	0x3e4df32d	0.20112295
42	0x3e11947f	0.14216803
43	0xbea45840	-0.3209858
44	0x3edd30a9	0.43201187
45	0x3d8da934	0.069170386
46	0xbd0c400c	-0.034240767
47	0x3d8862ec	0.06659493
48	0x3ca7b6b9	0.020472871
49	0xbcf4f34f	-0.029901175
50	0x3d2d507f	0.042313095
51	0x3eac1de5	0.33616558
52	0xbe55e860	-0.20889425
53	0xbdb95cde	-0.09050916
54	0xbd8fd76b	-0.070235096
55	0x3e9095fe	0.28239435
56	0xbe22582d	-0.15853949
57	0x3cd8a2c1	0.026444795
58	0xbe73df9d	-0.2381577
59	0x3d667e6e	0.056272916
60	0x3e5efd66	0.21776351
61	0x3da9c88f	0.08290207
62	0xbcf9c1a3	-0.030487841
63	0x3cc60e11	0.02417663

net.8.weight f4 [10, 64]
0	0xbab3506b	-0.0013680583
1	0xbb562ed6	-0.0032681725
2	0x3bd26325	0.0064205104
3	0xbd239a98	-0.039942354
4	0xbd12210f	-0.03567606
5	0x3c6bbe3f	0.01438862
6	0xbc00dd75	-0.0078652995
7	0xbd2d2dbc	-0.042279944
8	0x3babd15c	0.0052434634
9	0x3b8c42cd	0.004280424
10	0x3d08791a	0.033318616
11	0x3d0be485	0.03415348
12	0x3e1051b6	0.1409367
13	0xbce0c734	-0.027438737
14	0x3c131705	0.008977656
15	0x3cb8c9b8	0.022557124
16	0xbc7f3506	-0.015576607
17	0xbbfcfb52	-0.0077203894
18	0xb9eac11f	-0.00044775844
19	0xbd24e6a9	-0.040259037
20	0xbe0366a7	-0.12832128
21	0xbcc36015	-0.023849526
22	0x3d27a596	0.0409294
23	0x3ca1a798	0.019733235
24	0xbc3b3a8c	-0.011427533
25	0xbc35e020	-0.011100799
26	0x3be2172a	0.006899734
27	0xbc7c4506	-0.015397316
28	0x3cdd3911	0.02700475
29	0x3c46545b	0.012105073
30	0x3d60bbdc	0.054866657
31	0xbda3a291	-0.079899915
32	0xbcbdb269	-0.023156362
33	0xbbce0d4f	-0.0062882076
34	0xbcc9da8a	-0.02464034
35	0xbd02cdc4	-0.031934515
36	0x3ba9c054	0.005180398
37	0x3d1a6793	0.037696432
38	0xb9ffb3ec	-0.00048771442
39	0x3d95e6c1	0.073194034
40	0x3d089f04	0.033354774
41	0x3beb5cc1	0.007182688
42	0xbc56320a	-0.013073454
43	0x3c5c0f85	0.0134314345
44	0xbda377e9	-0.079818554
45	0x3cabe57a	0.020983446
46	0xbc8388bf	-0.016056417
47	0xbc6ff14f	-0.014644935
48	0xbcf2dc6d	-0.029646123
49	0xbbb56252	-0.0055354023
50	0x3bc1ad19	0.0059105274
51	0x3c4d4c62	0.012530418
52	0xbd5cce7f	-0.053907868
53	0xbccb2f20	-0.024802744
54	0x3cdbe4d1	0.026842507
55	0xbb8a3af5	-0.004218454
56	0x3c7eb85c	0.015546884
57	0xbc5c7180	-0.013454795
58	0xbd2eb500	-0.042653084
59	0x3d484da5	0.048902173
60	0xba91e653	-0.0011131264
61	0xbb17a2ab	-0.002313773
62	0xbd512468	-0.05106011
63	0x3bdb994a	0.006701623
64	0xb96599ae	-0.00021896392
65	0xbb083b2a	-0.0020787218
66	0x3c96314c	0.018334053
67	0x3db2d797	0.08732527
68	0xbd5aa46e	-0.05337947
69	0x3bdd3153	0.0067502647
70	0xbc937cb3	-0.018003797
71	0xbc961e31	-0.018324943
72	0xbbd85f10	-0.006603129
73	0x3c67ec1d	0.014155415
74	0x3cfdb28e	0.03096893
75	0x3d439063	0.04774512
76	0xbda5938a	-0.080847815
77	0xbd8d7967	-0.06907921
78	0xbb8aaa4d	-0.004231727
79	0x3c41b57e	0.011823056
80	0xbd515457	-0.051105823
81	0xbc4257d5	-0.011861761
82	0xbc8491fe	-0.016182896
83	0xbc975a96	-0.018475812
84	0xbdbd17a8	-0.09233028
85	0xbd01de2a	-0.031706013
86	0x3cedfefb	0.029052248
87	0x3ca4b92b	0.020107826
88	0xbbfa4470	-0.007637553
89	0xbc3bb3b4	-0.011456419
90	0x3c95a639	0.018267738
91	0xbc02a5b9	-0.007974082
92	0x3c907012	0.017631564
93	0xbc51fcdb	-0.012816633
94	0x3d834526	0.064096734
95	0xbe11a9ae	-0.14224884
96	0x3bc7fe46	0.00610331
97	0xbcc5721d	-0.024102265
98	0xbca8321d	-0.020531708
99	0xbd283ea8	-0.04107538
100	0xbbd50c91	-0.006501742
101	0xbd8e0a14	-0.06935516
102	0xbc467eb2	-0.012115167
103	0x3dfa69c1	0.12227202
104	0x3d1bd207	0.038042095
105	0x3cbc379f	0.022975741
106	0xbb93065e	-0.004486843
107	0xbc215e4a	-0.00984914
108	0x3d5c3375	0.05376001
109	0x3d0dc79a	0.034614183
110	0xbc80c4d4	-0.015718855
111	0xba4c17af	-0.00077855116
112	0xbd1c7277	-0.0381951
113	0x3bdf01d5	0.0068056383
114	0x3ce4b05e	0.02791613
115	0xbc5c09d3	-0.013430077
116	0x3d8fbd45	0.07018522
117	0xbcc53e43	-0.02407754
118	0xbdab4466	-0.08362655
119	0xbc8bb33c	-0.017053239
120	0x3c875ae9	0.016522842
121	0xbbe51a9e	-0.0069916984
122	0xbd5afba2	-0.053462632
123	0x3d20526e	0.03914111
124	0xbb8900b6	-0.004180993
125	0x3b154834	0.0022778632
126	0xbde2098b	-0.110369764
127	0x3c2ef013	0.010677355
128	0x3c3b4844	0.011430804
129	0xbbb18088	-0.0054169334
130	0xbbe5d10f	-0.007013447
131	0xbd86f9ea	-0.06590636
132	0xbd77247b	-0.060337525
133	0x3c89896b	0.016789159
134	0x3b1c9b0d	0.0023896128
135	0xbd41f7f7	-0.04735562
136	0xbc2e8245	-0.010651176
137	0x3c1436e8	0.009046294
138	0x3ca11757	0.01966445
139	0x3d4d8dad	0.05018394
140	0x3c916586	0.017748605
141	0xbd670f1f	-0.056410905
142	0xbc7cd311	-0.0154311815
143	0x3cdf5acc	0.027264975
144	0x3d8b361a	0.067974284
145	0xbb72cd9a	-0.0037048818
146	0xbc09714c	-0.0083888285
147	0xbd4b4506	-0.049626373
148	0xbded8e47	-0.11599403
149	0xbc46e706	-0.012140041
150	0x3d12eb98	0.03586921
151	0x3d223ff5	0.039611775
152	0xbc8b6434	-0.017015554
153	0xbccaec29	-0.024770813
154	0x3c4a31c7	0.012340969
155	0xbc0bf6a5	-0.008542691
156	0x3d17cacf	0.037058648
157	0xbabb893a	-0.0014307864
158	0x3d5676cb	0.052359384
159	0x3d2df21b	0.042467218
160	0xbcca125d	-0.02466696
161	0xbccc1ea3	-0.024916952
162	0xbc244240	-0.010025561
163	0xbcced588	-0.025248304
164	0x3c174eb3	0.009235072
165	0x3c26025f	0.010132401
166	0xbb8862fe	-0.0041621914
167	0xbdb50fed	-0.08840928
168	0x3d516add	0.051127303
169	0x3cb2aac4	0.021809943
170	0xbc1bfcbb	-0.009520705
171	0xbd52f23a	-0.051500537
172	0x3d58ee25	0.052961487
173	0x3c8c2fa1	0.017112555
174	0xbc9906af	-0.018679945
175	0xbc649d56	-0.013953527
176	0xbd0c7290	-0.034288943
177	0xba8c123d	-0.0010686588
178	0x3cd1b154	0.025597252
179	0xbd54e7f1	-0.05197901
180	0x3cccc800	0.024997711
181	0xbd1a7dbd	-0.03771757
182	0x3da85e90	0.08221161
183	0xbcc71b7c	-0.024305098
184	0x3c26a4d5	0.010171135
185	0xbca94296	-0.020661633
186	0xbd1011a1	-0.035173062
187	0x3d066a3f	0.032816168
188	0xbb3caf8e	-0.0028791162
189	0xbb3ed8f0	-0.0029121004
190	0x3b5b12ad	0.003342788
191	0x3badf7aa	0.005309065
192	0xbb6763b2	-0.0035307226
193	0xbc0520d8	-0.008125506
194	0x3c0668f4	0.008203734
195	0x3ccb38b5	0.024807313
196	0xbd5e0528	-0.054204136
197	0x3a22b3ed	0.00062066206
198	0xbca7d29b	-0.020486167
199	0xbce347a7	-0.027744127
200	0xbbf9078f	-0.007599778
201	0x3c66fdca	0.014098594
202	0x3d21f7c8	0.039542943
203	0x3cf64e4b	0.03006663
204	0xbc15e318	-0.009148382
205	0xbd111cbe	-0.0354278
206	0xbc29b84d	-0.010358882
207	0x3cfbd41b	0.030740788
208	0x3d623c62	0.055233367
209	0x3b3736b9	0.0027956201
210	0x3b6ed878	0.0036444943
211	0xbd139d5d	-0.036038745
212	0xbdad2f53	-0.08456292
213	0xbcba7507	-0.022760881
214	0x3d19b012	0.03752143
215	0x3d00243b	0.031284552
216	0x3b8ca626	0.0042922674
217	0xbc0dc4aa	-0.008652845
218	0x3c085ce6	0.00832293
219	0xbbc4f182	-0.0060102353
220	0x3cb56860	0.022144496
221	0x3c09de85	0.008414869
222	0x3d4f3d84	0.050595775
223	0x3dd66184	0.104678184
224	0xbc51e67b	-0.0128112985
225	0xbce3b729	-0.027797299
226	0xbc084f82	-0.008319737
227	0xbc9dc1bc	-0.019257419
228	0x3be60bb6	0.007020439
229	0x3c725fd7	0.014793358
230	0xbb7c3405	-0.0038483154
231	0xbd6d22bd	-0.057894457
232	0xbd8a2382	-0.06745054
233	0x3c692c42	0.014231743
234	0xbbe559da	-0.0069992365
235	0x3ca4d4e6	0.02012105
236	0xbda3a593	-0.07990565
237	0x3ce9d126	0.028542113
238	0xbc878b95	-0.01654605
239	0xbc6c654c	-0.014428448
240	0xbd368af1	-0.0445661
241	0x3a1cac6f	0.00059766223
242	0x3c93ab7a	0.018026102
243	0x3d6515fd	0.055929173
244	0x3be4ade5	0.0069787377
245	0xbd3e8b28	-0.04651943
246	0xbd13cb0c	-0.036082312
247	0xbc9d108c	-0.01917293
248	0x3c91ef63	0.017814344
249	0xbc05d05a	-0.008167351
250	0xbd270125	-0.040772576
251	0x3cdb09b2	0.026738022
252	0x3cb33a1c	0.021878295
253	0xb9b164fd	-0.00033835313
254	0xbd9f7e48	-0.07787758
255	0x3d0101d6	0.03149589

net.8.bias f4 [10]
0	0x3db826ed	0.089917995
1	0xbf67970b	-0.9046485
2	0x3e9fc853	0.31207523
3	0x3f1bc9f7	0.6085505
4	0x3f0d191c	0.5511644
5	0xbcd03154	-0.025414146
6	0x3daf7fd5	0.08569304
7	0xbefd6ea8	-0.49498487
8	0xbed46ae6	-0.41487807
9	0x3e364ce2	0.17802766
